weight.pt (torch, 125503 bytes, 21 tensors)

layer1.0.weight f4 [16, 3, 3, 3]
000000 1e 06 98 be 8b 7f df bd dd d4 e9 bd 44 4b 2e be
       -0.29692167 -0.10912999 -0.114175536 -0.17020899
000010 ef 92 79 be 80 5e 8c 3d 39 0d 7c be 14 94 27 bd
       -0.24372457 0.06853962 -0.24614419 -0.040912703
000020 43 b5 bc 3d 56 2d ad bd 81 b4 db 3d 44 43 8c 3d
       0.092142604 -0.08455913 0.10727788 0.068487674
000030 0a 40 a0 3d 17 a4 05 3e a5 98 db bc a1 7e 9e 3d
       0.078247145 0.13050877 -0.026806185 0.07738996
000040 df e3 1c bd e8 54 18 3e 34 24 4a be fc 16 68 3c
       -0.038303252 0.14876139 -0.19740373 0.014165636
000050 08 63 d3 3c 03 d3 2f be 96 fd 1f be a3 60 59 3d
       0.025804058 -0.17170338 -0.15624079 0.053070676
000060 91 8c f4 3d 96 53 91 3d 4b af 6a 3c b7 53 c2 bd
       0.119408734 0.07096021 0.01432402 -0.094886236
000070 fd 3e 6e 3d 7e b4 34 be 16 8b ba bc 07 61 01 be
       0.05816554 -0.17646977 -0.0227714 -0.12634669
000080 8f c6 62 3d 64 42 11 be 47 5a 3f bd 72 7e 8b 3c
       0.05536514 -0.14185482 -0.046716955 0.017028067
000090 5d e1 92 3d e3 52 97 bd a7 f6 15 3e bd b4 68 be
       0.07171891 -0.07388856 0.14644872 -0.22725196
0000a0 de bc be bd 0c 8f 6b be 89 e3 0f bd 7c 1d 14 b9
       -0.09313367 -0.23003787 -0.035129104 -0.00014125364
0000b0 3e 0b f6 bd c5 ec 1b 3e 0d aa 9c 3d c1 61 d8 bc
       -0.12013863 0.15227039 0.07649622 -0.0264138
0000c0 26 30 55 3e 4c 0e 5c 3e 31 b1 62 3e 47 61 69 3e
       0.20819148 0.21489829 0.22137906 0.22791015
0000d0 64 9e 28 3e 62 36 5e 3e 02 8c 80 3e f8 9f 54 3d
       0.16466671 0.21700433 0.25106817 0.05191037
0000e0 99 e3 5b bd d2 67 a5 b9 11 23 a9 3d db 8b b1 3d
       -0.05368385 -0.00031548605 0.082586415 0.086692534
0000f0 ea 71 85 3d 82 6b 44 3e fa a2 16 3e 9e 26 67 be
       0.06515868 0.19181636 0.14710608 -0.22573325
000100 78 ad 0c be 82 3f ff bd 60 dd 31 3d 5f 07 01 be
       -0.13738048 -0.12463285 0.04342401 -0.12600468
000110 47 bc 0e be 1d 16 0b be fc ec 05 be ba 8a 01 be
       -0.1393901 -0.13582654 -0.13078684 -0.12650576
000120 5f b7 1e be cc 22 51 3e 66 4d 1a 3e 4b e5 52 bd
       -0.15499638 0.2042343 0.15068588 -0.051488202
000130 3a cb 80 bd 08 18 8f 3d b7 1c e6 3d 17 60 ee bd
       -0.062887624 0.069870055 0.11235946 -0.116394214
000140 10 a1 23 bd b8 70 9d bd 10 f3 7c be 32 1a 9a bd
       -0.039948523 -0.07687515 -0.24702096 -0.075245276
000150 94 52 b7 be af cf 16 3d 49 0c 78 3d 60 cb b0 be
       -0.3580519 0.036819156 0.06055859 -0.34530163
000160 1d a6 50 be d4 96 4c 3d 31 89 00 bd b8 c4 ff 3c
       -0.20375867 0.04994853 -0.031380836 0.031221732
000170 ba fe 0c be df 30 4c be a6 41 20 3d ae 13 fd bd
       -0.13769045 -0.19940518 0.039125107 -0.12357269
000180 8e 62 f9 bd 3d 7c 79 3d ec b9 13 3e 55 15 87 bd
       -0.12177001 0.0609095 0.14426392 -0.06595866
000190 d8 0f f8 3b 89 fc a0 3d ca f4 03 be d0 cd e6 bd
       0.007570248 0.07860667 -0.12886348 -0.11269724
0001a0 45 f2 0f 3e 1e 51 c1 3d 2a 5d 4b 3d 6f 53 8d bd
       0.14057262 0.094393 0.049649395 -0.06900679
0001b0 d2 e3 56 be 71 50 24 be 74 41 d8 3d 16 24 09 be
       -0.20985344 -0.16046311 0.10559359 -0.13392672
0001c0 f0 e8 2d bd ba 3f 66 3d 3c 99 ed 3d a8 fe 36 3e
       -0.042458475 0.056213118 0.11601493 0.17870581
0001d0 32 d4 61 3d b1 fc e5 bd 2f f0 f7 3d 3e be a5 3d
       0.055134006 -0.11229838 0.12106358 0.080929264
0001e0 2e 91 7e be 7d 45 8e 3d ca 10 86 3e 24 ff 61 be
       -0.24860069 0.069468476 0.26184684 -0.22069985
0001f0 8a e0 2a bd 06 0c e5 3d 0b 46 54 be e0 3d fc bd
       -0.041718043 0.11183934 -0.20729844 -0.12316489
000200 ee 2c 85 3e 54 76 0c be 51 cb 04 3e 73 45 f1 3d
       0.2601084 -0.13717014 0.12968184 0.117808245
000210 b4 6d 00 bd 65 31 f6 bd dd ed 66 3d b1 59 3b 3c
       -0.03135462 -0.1202114 0.056379188 0.011434958
000220 13 14 da bc 65 f2 0e be 12 12 bd bd 76 bf 0f 3d
       -0.0266209 -0.13959654 -0.09231962 0.0350947
000230 4d 53 78 be 7f 4c e4 3c 39 1c 29 be e7 1a f7 bd
       -0.24250527 0.027868507 -0.16514672 -0.12065678
000240 79 80 80 3d 51 d3 48 be bf a8 62 bd 2b 74 23 3e
       0.06274504 -0.19611861 -0.05533671 0.15962283
000250 31 d0 0d 3d 07 bf c7 bd 6c 8b 93 bd 86 ed e1 3d
       0.034622375 -0.097532324 -0.07204327 0.11031632
000260 79 ab 46 3d d7 02 03 3e 70 c5 05 be ab e7 6b 3d
       0.048503373 0.12794052 -0.13063598 0.057593983
000270 51 d7 96 3d fc bc 29 3d 2f 32 44 3e 5b 40 e4 3d
       0.07365287 0.041439995 0.19159769 0.11145087
000280 70 3e 0f 3e ce 09 b3 3d 83 d0 99 3d b1 47 e6 bc
       0.13988662 0.087421045 0.075104736 -0.028110357
000290 87 56 37 be 43 72 60 be 0a 9f 3a be 3b 87 53 be
       -0.17904101 -0.21918587 -0.18224731 -0.20657055
0002a0 a1 2b 0b 3d 0f f9 d0 3a 50 c4 f5 bd 42 93 93 bd
       0.033977155 0.0015943366 -0.12000334 -0.072058216
0002b0 39 0b 8a 3e f8 53 55 3e a6 59 01 3e d9 ee 5c 3e
       0.26961687 0.20832813 0.12631854 0.21575488
0002c0 5b 05 ae bd c2 98 9e bd bd 29 b0 bd cf 3e 8a 3c
       -0.08497115 -0.0774398 -0.08601711 0.016875653
0002d0 f1 cb 23 be 88 bf 30 3e 7e b5 94 3c 00 fb a3 3d
       -0.15995766 0.17260563 0.018152948 0.08006859
0002e0 b0 e7 fc bd bf 7d 34 bd 3f 46 5f 3c 88 46 86 bd
       -0.123488784 -0.044065233 0.013627588 -0.065564215
0002f0 fc 0c 2d 3e bd 1b 02 be 2b 39 94 3c 60 76 14 be
       0.16899484 -0.12705894 0.018093666 -0.14498281
000300 68 59 0e bd a0 69 9a bd 0d f5 b1 3d 55 af f6 3d
       -0.034753233 -0.075396776 0.08689318 0.12045161
000310 c2 b0 8d ba 55 4a 22 bd 89 27 fc 3d 52 59 96 3e
       -0.0010810124 -0.03962167 0.12312228 0.2936502
000320 5a 7d 30 3e a9 03 ac 3e b9 5a b9 3d 5e d2 c8 3e
       0.17235318 0.33596542 0.09050507 0.39222997
000330 b4 e7 bf 3e 1f 8e 87 3e bb 3d 95 3e 80 ef d0 3d
       0.37481463 0.26475617 0.2914866 0.10201931
000340 4d 88 7c bd 9f 1d 8c 3d c8 3d 07 3e da d5 19 3c
       -0.061653424 0.06841587 0.13207161 0.009389365
000350 16 5e fc 3d 57 d5 39 3e b0 f3 02 be 3e ac dd bd
       0.12322633 0.18147789 -0.12788272 -0.10823868
000360 cf 50 b2 bd 33 d9 84 3d 47 dd 41 3d 66 d4 c5 3d
       -0.08706819 0.0648674 0.047330167 0.096596524
000370 a7 a0 4a 3c f7 04 20 bd 7a 49 93 3d 8c 0d 2c 3e
       0.012367404 -0.039067235 0.07191749 0.16802043
000380 47 75 77 bd c7 c9 27 be 71 4f 99 be 6a 1e d9 bd
       -0.06041458 -0.16385566 -0.2994342 -0.10601504
000390 0f cb eb be 95 6a f8 be 96 ac 56 be c6 35 e8 be
       -0.4605336 -0.48518816 -0.20964274 -0.45353526
0003a0 a8 f3 ee be d5 d6 4d be 8e 2c 35 bd 47 93 a1 be
       -0.4667027 -0.20101483 -0.044231944 -0.31557676
0003b0 9f ef 77 3d 91 6a 06 be dd 20 24 3d db ca 30 be
       0.060531255 -0.1312659 0.040070403 -0.17264883
0003c0 cc f5 8a be db 76 7e be 18 dd fc bd 48 cf 5b be
       -0.27140653 -0.24850027 -0.12346858 -0.2146579
0003d0 0c 8a 67 bd a7 96 3a be 12 e7 90 bd 80 ca 14 bd
       -0.056528136 -0.18221532 -0.07075323 -0.03632593
0003e0 84 e5 7a bd b6 e8 64 be 89 b2 9c 3d 39 37 29 be
       -0.06125404 -0.22354397 0.076512404 -0.16524972
0003f0 1a ec 80 3e 80 31 97 3e f2 06 a1 3c b4 e9 1c 3e
       0.2518013 0.29529953 0.019656632 0.15323526

layer1.0.bias f4 [16]
000000 90 5e dc bd 7f 1e a9 3d 84 6d 14 be 80 14 09 be
       -0.10760224 0.0825777 -0.14494902 -0.13386726
000010 66 6e 15 3e 24 ff 2d be 4a 0c 5c 3d fc ab a5 3e
       0.14592895 -0.1699186 0.053722657 0.32357776
000020 a6 e6 6d 3c 70 6c e5 bd 4d 0a f2 bd 9d d2 3f be
       0.014520323 -0.112023234 -0.11818371 -0.18732686
000030 b9 0f 84 be c3 d3 e2 bd 00 c3 08 3d 86 09 9b bd
       -0.25793245 -0.110755466 0.03338909 -0.07570176

layer1.1.weight f4 [16]
000000 bd 60 76 3f 21 d9 65 3f 36 d7 8e 3f da 7e 5a 3f
       0.9624136 0.8978444 1.1159427 0.8534981
000010 d1 96 90 3f af 85 72 3f d6 7a 80 3f 4f 4f 7f 3f
       1.1296026 0.94735235 1.0037487 0.9973039
000020 49 1d 88 3f d3 13 8b 3f 12 b6 81 3f 48 15 85 3f
       1.0633937 1.0865425 1.0133688 1.039712
000030 62 c3 42 3f 63 ad 84 3f e5 29 8b 3f b4 df 5a 3f
       0.7607938 1.0365413 1.087216 0.85497594

layer1.1.bias f4 [16]
000000 d5 96 82 bc c6 a3 25 be de f2 d8 bc 43 22 bc bd
       -0.015941063 -0.16175756 -0.026482996 -0.091862224
000010 ba 5b 7e bd 9f 17 ab bd 94 65 e5 3c 23 3c 77 3e
       -0.062099196 -0.08354115 0.028002538 0.24144034
000020 1c 8a be bc e0 8a 1e 3d 65 c3 3c 3d 21 0a 7e bd
       -0.023259215 0.03870666 0.04608478 -0.06202138
000030 c0 14 2d be 3a d5 13 be a6 e7 8c 3d cd 86 06 3e
       -0.16902447 -0.14436808 0.06880121 0.1313736

layer1.1.running_mean f4 [16]
000000 8b 43 f4 be bb 81 a9 bc ad 4b 8f be 07 95 2d bf
       -0.4770778 -0.020691743 -0.27987424 -0.6780552
000010 ab 76 1f 3e ed 84 8b 3e 4f a1 ed bd 88 12 83 3f
       0.15572612 0.27249852 -0.11603033 1.024003
000020 3c 27 9f bf f3 8d 98 be 58 59 3d 3f e5 e4 3a 3e
       -1.2433848 -0.297958 0.7396445 0.18251379
000030 03 79 40 bf d3 8d 47 be ad ed 88 3d 92 ab 0c 3f
       -0.7518465 -0.19487695 0.06685958 0.54949296

layer1.1.running_var f4 [16]
000000 d6 a6 2b 3d 4d b1 00 3d a3 a9 87 3c 17 c2 b0 3d
       0.041907154 0.031419087 0.016560381 0.0863077
000010 40 87 48 3c 01 3d 8e 3d 73 74 21 3c 48 9e 2f 3e
       0.012239277 0.06945229 0.009854424 0.17150223
000020 08 42 03 3f bb c2 a1 3c 7c 6f 44 3e 90 82 3b 3d
       0.5127263 0.019746175 0.19183153 0.04577881
000030 8e b2 e3 3d 77 98 57 3c e2 fd 00 3c 7d 20 fb 3d
       0.11118041 0.013158909 0.00787303 0.12262056

layer2.0.weight f4 [32, 16, 3, 3]
000000 1e 9c 00 be f8 6e 7e bd e5 c2 d9 bd 5d 1e cb 3c
       -0.12559554 -0.062117547 -0.10632876 0.024794752
000010 df 6b c5 3c e2 94 23 3d c6 4d 83 3b 1c e4 76 bd
       0.024099289 0.039936908 0.004007074 -0.060276136
000020 0c 50 cb bd 38 a1 6e bd 97 5e 87 3b 5e 97 2f 3d
       -0.09927377 -0.05825922 0.004131149 0.042868964
000030 48 83 ee 3c 38 63 c7 bb d0 e5 c7 3c 74 96 a8 3c
       0.029115334 -0.006084826 0.024401575 0.020579554
000040 8b a5 a9 bb e7 4b a4 bc aa 40 67 bd a7 0b 88 bd
       -0.005177205 -0.020055724 -0.056458153 -0.066428475
000050 d1 0b 0d be 8d 6a ce 3c 05 db 02 be 4a 18 6d bd
       -0.13774039 0.025197292 -0.12778862 -0.057884492
000060 7f 7c a8 bd 81 0a 50 3c 5d c2 a7 3b e5 c2 49 3d
       -0.08226871 0.012697817 0.0051196055 0.04925813
000070 58 19 aa 3c 9c 90 ac bd de b1 57 bc 8c 76 98 3b
       0.020764038 -0.084260195 -0.013164965 0.0046528038
000080 1a 4a be bb 45 3f 77 bc 57 62 92 3d 22 9e e8 3c
       -0.0058071734 -0.015090768 0.07147663 0.028395716
000090 c0 b6 cc bd 69 01 0a bd b0 bf b6 bc 3d 4f 2a be
       -0.09995794 -0.03369275 -0.0223082 -0.1663179
0000a0 b2 43 08 3d de c0 f0 3d 3d aa 42 be 90 11 bd 3d
       0.033267684 0.117555365 -0.19010253 0.092318654
0000b0 f7 1f e1 3d 0b f3 cb bc 81 f4 74 bd fc 5d 06 3e
       0.10992425 -0.024896165 -0.05980349 0.1312179
0000c0 20 45 bb 3c fd c2 0a bd 5d 63 cb 3d f5 fa 2d 3c
       0.02286011 -0.03387736 0.099310614 0.010618915
0000d0 43 ae d1 bd 9d a6 9a 3d d1 58 3c 3c fb 10 99 3d
       -0.10238316 0.0755131 0.011495785 0.07473942
0000e0 7f 43 0d bd 6b 47 e5 3d 14 7b 02 3e fe ae 99 3d
       -0.034488197 0.111952625 0.12742263 0.0750408
0000f0 39 2f 02 3e ed 96 59 3d 81 84 9a 3d 5e 3f 8d 3c
       0.12713327 0.05312245 0.07544804 0.01724213
000100 af 1d 6c 3d ee ae b3 3d ee 20 cf bd b1 d5 86 bd
       0.057645496 0.087735996 -0.10113703 -0.06583727
000110 39 b8 30 3d fc 6d 46 bd 55 a1 18 be 5d a6 95 3d
       0.04314444 -0.048444733 -0.14905293 0.07307122
000120 cf 4f 06 be 0f 0b 12 be 42 4c f9 bd 2e 3f 8f 3c
       -0.13116382 -0.14262031 -0.12172748 0.017486181
000130 c6 06 2c bb 24 69 cb bd 6c f5 be 3c bb df 5e 3d
       -0.0026249154 -0.09932163 0.023310386 0.054412585
000140 a6 99 e6 bd ef 21 3b bd 84 94 ec bd c9 ea 1d be
       -0.11259775 -0.04568666 -0.115517646 -0.15421595
000150 c3 5d 8e bd 59 69 d8 bd 7a 6b ef bc 95 07 13 bd
       -0.069514774 -0.105669685 -0.029226054 -0.035895903
000160 d3 05 4f bd 5a a5 8d bd 5c 1e ec bd 2f f6 bc bc
       -0.050542664 -0.06916304 -0.11529228 -0.023066608
000170 4c 6c 7f bd 20 ee b3 bd 91 0e 1d be 6d c2 2d be
       -0.06235914 -0.08785653 -0.15337588 -0.16968699
000180 26 ad 6f be 78 62 86 be bd 69 51 bc 4b df e2 3d
       -0.23405895 -0.26247 -0.012781558 0.11077746
000190 30 0e 7b 3d b5 73 8a 3d 4f 03 71 bc 90 71 25 be
       0.061292827 0.067603506 -0.0147102615 -0.16156602
0001a0 2c 1d 43 3d 4b 78 e7 bd 7b 34 90 bd 3e e8 e8 3c
       0.047635242 -0.11302241 -0.0704126 0.028431054
0001b0 88 5e 80 bd 68 59 c5 bd cf e3 8e bd 23 1b 9c bd
       -0.062680304 -0.096361935 -0.06977045 -0.076223634
0001c0 e2 0a ad bc 32 2a 4d be ff a6 bb 3a 07 03 db bd
       -0.021123353 -0.20035627 0.0014316736 -0.10693937
0001d0 1c 1a 88 bd 6c 6d 89 3b 89 50 15 be d5 9c 94 bd
       -0.06645605 0.0041939523 -0.14581503 -0.07256476
0001e0 49 dd 9d bd 3f fc 60 bd 09 a7 e1 bd 50 a0 fb bc
       -0.077082224 -0.05492806 -0.110181876 -0.030716091
0001f0 3a 28 f5 bd 15 e2 9b bd 01 c9 a4 bc 5d 4f 18 be
       -0.11970563 -0.07611481 -0.020115377 -0.14874025
000200 19 65 08 be 5a 2e 73 3d 8c 8a 34 be 84 e4 fd bd
       -0.13319816 0.059370376 -0.17630976 -0.123971015
000210 45 b4 7b 3d 25 05 39 bd f0 7f 0a be 18 98 c9 bd
       0.061451215 -0.04517092 -0.13525367 -0.09843463
000220 7f 63 d7 bb 32 30 63 3d 4f db 21 bd 72 36 f9 bd
       -0.00657314 0.055465885 -0.03951579 -0.12168588
000230 26 7a e9 bd a5 7c b8 bd 32 f9 2d be d2 1f ff bc
       -0.11400251 -0.09008149 -0.16989592 -0.031143103
000240 13 7d 2c be dc d5 56 bd fc 10 ad bd c2 25 68 be
       -0.16844587 -0.052450046 -0.08450505 -0.22670653
000250 c3 3c db bd 1f ac 8e bd 30 ab 5c be a1 47 38 be
       -0.10704949 -0.06966423 -0.21549678 -0.17996074
000260 19 78 e8 bd 45 d5 27 3e d8 d3 e0 3d a0 25 f7 3d
       -0.11351032 0.1638995 0.10977906 0.12067723
000270 cc 65 f3 3d 5a c5 28 3c 09 b5 03 3d 85 d4 bf 3d
       0.118846506 0.0103009585 0.03215507 0.09366707
000280 84 c5 fc 3d ec 71 08 3d b9 fe 0f 3e 9b b9 dd 3d
       0.123423606 0.03331177 0.14062013 0.10826417
000290 d9 64 cb 3d ef 5d f7 3d 2b 90 e3 3d ff 0e 41 3d
       0.099313445 0.12078463 0.11111482 0.047133442
0002a0 96 55 ae 3d 6d 26 cd 3d 1a a6 f2 3d df e0 f7 bc
       0.08512418 0.10017095 0.118480876 -0.030258594
0002b0 91 09 b8 bc 21 8b 84 bd eb a4 2d be 1d 6e 16 be
       -0.0224655 -0.06471849 -0.16957442 -0.14690442
0002c0 82 08 ab bd 03 7d d1 bd c4 54 e2 bd d4 3f d9 bc
       -0.08351232 -0.10228922 -0.11051324 -0.026519693
0002d0 d1 56 8d bd b8 32 21 be fa f8 04 bc b3 4f 66 bd
       -0.069013245 -0.15742004 -0.008116001 -0.05622835
0002e0 91 34 41 be 96 82 ca 3c 58 4e 96 bd 90 e6 1e be
       -0.18867709 0.024720471 -0.07339162 -0.1551764
0002f0 42 8e 3b bd d7 be 3d 3d 50 23 00 be 38 5c b8 bc
       -0.045789964 0.046324577 -0.1251347 -0.02250491
000300 f8 e0 e6 3b e5 84 bd bd 54 2a c4 bd 38 e6 f4 3c
       0.0070458613 -0.09253863 -0.09578386 0.029894933
000310 65 60 bc 3c bc 73 f7 3b b4 ea c0 bd 07 8d f4 bc
       0.022995183 0.0075516384 -0.09419766 -0.029852403
000320 78 f6 c5 3c d5 79 a6 bd 7c 42 cd bd b4 aa 89 3c
       0.024165377 -0.08128706 -0.100224465 0.01680503
000330 32 13 eb bd c8 5d c7 bd 09 de 7f bd 4e e4 dc bc
       -0.114782706 -0.09734684 -0.06246761 -0.026964333
000340 83 85 29 be 21 35 c5 bd 27 f8 0c bd 1a 58 f2 bd
       -0.16554837 -0.09629274 -0.034416344 -0.1183321
000350 06 21 22 be c1 05 bf 3d 82 15 21 be b4 bb 20 be
       -0.1583291 0.09327269 -0.15730861 -0.15696603
000360 60 bb 48 3d 4e cc ab 3d 8d 02 19 3e a8 56 59 3d
       0.04900682 0.083885774 0.1494238 0.053061157
000370 18 e0 11 3e 43 26 7b 3d 22 c5 04 3e 0c fc de 3d
       0.14245641 0.061315786 0.12965825 0.10887918
000380 b5 54 cc 3d 68 e5 7f be c3 0d 31 be d6 e4 c5 bd
       0.09977094 -0.24989855 -0.17290406 -0.096627876
000390 6a db 8e be e0 2c 76 be 6a 05 73 bd 9f 47 73 be
       -0.27901775 -0.24040556 -0.059331335 -0.2375779
0003a0 4b dd 4b be c8 14 7c bc 33 df 94 3d 9c af f9 bc
       -0.19908635 -0.015385814 0.07269134 -0.030479245
0003b0 23 14 a2 bd 77 3b bf 3d fe bc 08 be ee 01 42 bd
       -0.07913997 0.09337514 -0.13353345 -0.04736512
0003c0 62 7e f7 bb 79 61 05 be ab 8c 7a be d3 f7 0a 3c
       -0.007552908 -0.13025464 -0.24467723 0.008481937
0003d0 10 96 1a be 8a e3 64 bc 55 95 c2 bc 2a 1a 43 bb
       -0.15096307 -0.013970265 -0.023752848 -0.0029770234
0003e0 22 a4 a3 bd 5c d3 01 3d da 5c 66 bd 57 b8 f0 bd
       -0.0799029 0.03169571 -0.056240894 -0.1175391
0003f0 90 aa 37 bd 06 3f a4 3c 28 88 5e bd 8d 9a f2 bd
       -0.044840395 0.020049583 -0.054329067 -0.118458845

layer2.0.bias f4 [32]
000000 e9 47 2e 3d d4 d4 2c bb d0 94 d4 bd 69 4e 18 be
       0.042549048 -0.0026371973 -0.10379946 -0.14873661
000010 02 11 e0 bd 99 44 37 3c ac ae 1c be 82 64 2c bc
       -0.10940744 0.011185789 -0.15301007 -0.01052201
000020 60 12 f4 bd 22 94 e8 bd bc 1c 05 3e 76 9b 96 bd
       -0.11917567 -0.11356379 0.12999243 -0.073538706
000030 fe 84 c2 bc 5e 0d 5a bb 2f 4e 38 be 38 8c 0b be
       -0.023745056 -0.0033272128 -0.17998575 -0.13627708
000040 c7 85 13 3d 8a b5 f5 bd 3c f5 c7 bc e9 c4 22 be
       0.036016252 -0.119975165 -0.024408929 -0.15895428
000050 40 4e d1 39 3d bb 33 3e 13 9f c4 3d a7 7b ad bb
       0.00039921887 0.17551894 0.096006535 -0.0052942815
000060 ae e2 3e be 95 99 c0 bd 8f 41 57 bd ea 02 ca 3c
       -0.18641159 -0.094042934 -0.052552756 0.024659593
000070 8e 57 c9 3d 22 cb 50 bd dc ef f7 bd 4c f2 1b 3b
       0.09831153 -0.050974973 -0.121062964 0.0023795543

layer2.1.weight f4 [32]
000000 28 55 60 3f b0 32 91 3f 62 16 69 3f 3f 1d 7e 3f
       0.8762994 1.1343594 0.9104978 0.99263376
000010 24 8b 6e 3f 27 05 7f 3f 29 a0 57 3f 44 ca 83 3f
       0.9318106 0.99617237 0.8422876 1.0296102
000020 02 c1 82 3f 35 ad 55 3f b6 37 92 3f 90 ee 76 3f
       1.0215151 0.8346742 1.1423252 0.9645777
000030 f1 d1 88 3f 65 db 6b 3f cc 75 6b 3f f9 62 55 3f
       1.0689069 0.92131644 0.9197662 0.83354145
000040 04 4f 94 3f d5 2d 87 3f 9d ec 83 3f f2 70 5b 3f
       1.1586614 1.0560862 1.0306584 0.85719216
000050 0b e7 80 3f 6b 37 8d 3f e5 4d 8a 3f ce 32 7f 3f
       1.0070509 1.1032537 1.0805022 0.99686897
000060 f2 7f 49 3f 93 09 8e 3f 45 ae 7e 3f f2 af 79 3f
       0.78710854 1.1096672 0.99484664 0.97534096
000070 70 dd 83 3f 75 7c 92 3f 8d 2e 84 3f 0a 01 75 3f
       1.0301952 1.1444231 1.0326706 0.9570471

layer2.1.bias f4 [32]
000000 b6 66 cb bd 17 a2 36 3d 75 6e 16 be f8 be 45 bd
       -0.099317 0.044588175 -0.14690574 -0.048277825
000010 1f 0e 7f bd ed 64 5d bd 51 ed 37 be ad a8 99 bd
       -0.062269326 -0.05405133 -0.17961623 -0.075028755
000020 c8 ad d7 bd 35 3b 4b be e9 35 ab 3c c0 d7 0b be
       -0.10531193 -0.19846804 0.02089973 -0.13656521
000030 44 6d 93 bd 2c ae 81 bd 33 e4 26 be 34 4e 48 be
       -0.07198575 -0.06332049 -0.16297989 -0.19561082
000040 78 99 55 bd 48 94 6f bd bf 77 56 bd 44 43 02 be
       -0.052148312 -0.05849102 -0.052360293 -0.12720972
000050 ea 9e b9 bd b9 a6 8f 3d 09 0d 5e bc dc 97 b2 bd
       -0.090635136 0.07014222 -0.0135529125 -0.08720371
000060 5b 28 58 be 60 e4 14 be f3 01 40 bd ae 57 93 3b
       -0.21109144 -0.14540243 -0.04687686 0.004496536
000070 10 2c 91 3c f3 c5 ee bd dd a9 8a bd cf f1 03 bd
       0.017721206 -0.116588496 -0.0677068 -0.03221303

layer2.1.running_mean f4 [32]
000000 7e 2c 24 c0 59 43 05 c0 6d 1f 0e 3e f7 c3 ba bf
       -2.5652156 -2.0822356 0.13879175 -1.4591054
000010 ca b9 f3 bf 1b ee 97 3d d1 c4 f6 3e e9 e6 d0 bf
       -1.9041073 0.07418462 0.48197034 -1.6320468
000020 1f 3d 8e c0 25 c6 26 c0 38 d8 0b 3f 7f 01 19 c0
       -4.444961 -2.6058438 0.546268 -2.3907163
000030 74 b8 39 be 69 49 dc bf 0f fe 05 c0 0e 6b 2c c0
       -0.1813677 -1.7209903 -2.0936315 -2.694034
000040 fb 44 ae bf 02 47 f2 bf 50 95 9a c0 7b 45 40 c0
       -1.3614801 -1.892792 -4.8307266 -3.0042408
000050 d0 b4 87 c0 3e 99 7a c0 f3 2c a5 c0 ea 96 91 c0
       -4.240822 -3.9156032 -5.161737 -4.549672
000060 bb df 7e c0 ca 99 90 c0 29 c1 a5 bf c6 d2 a7 bf
       -3.9824054 -4.518773 -1.2949573 -1.3111198
000070 e8 b5 9c bf ba c6 db bf 60 af 3c c0 d9 03 3c bf
       -1.2243013 -1.7170022 -2.948204 -0.7344337

layer2.1.running_var f4 [32]
000000 e9 51 f1 3f ea 31 84 40 17 0d 12 40 b3 08 c1 3f
       1.8853122 4.131093 2.282049 1.508078
000010 b2 fc 58 3f b7 2a a0 3f 1a 09 48 40 49 27 d1 40
       0.8476058 1.2513036 3.1255555 6.5360456
000020 03 82 8a 41 a2 ac f3 3f 99 37 4d 40 f9 1e fd 40
       17.313482 1.9037058 3.2065184 7.910031
000030 25 4c 33 40 aa 48 a7 40 f7 75 2f 40 72 f3 3f 40
       2.8015225 5.22762 2.741575 2.9992337
000040 ad 1e b9 40 a6 ed 1c 40 37 9c 59 41 e9 bc f4 3f
       5.7849946 2.452005 13.600638 1.9120151
000050 7e a6 79 41 ae e1 24 41 c4 37 27 41 1f 95 64 41
       15.6031475 10.305098 10.451115 14.2864065
000060 d4 5c 0b 40 5c 0a 12 41 71 a0 ea 3f 64 c7 41 40
       2.1775408 9.127529 1.8330213 3.0277948
000070 cc 0b 8f 40 6e 46 8f 40 66 de 90 41 b3 81 9c 40
       4.47019 4.4773474 18.108593 4.8908324

layer3.0.weight f4 [64, 32, 3, 3]
000000 43 9f 68 bd 7c 99 58 bd 21 a9 a2 bd 44 5b 1c 3d
       -0.05679251 -0.05288075 -0.07942415 0.038172975
000010 07 5a 92 3c 53 cb 5f 3d e3 80 8b 3d e0 ea a2 3d
       0.017865194 0.054637264 0.068116926 0.07954955
000020 0d 80 41 3d 4c 6a 15 3e 36 a8 83 3e af 3f d0 3d
       0.04724126 0.1459133 0.25714272 0.10168397
000030 d8 e8 48 3d b2 23 a4 3d e4 73 b8 bd 01 03 c6 bd
       0.049050182 0.08014621 -0.090064794 -0.09668542
000040 68 99 07 be eb e2 69 be ba 30 40 bd 5d e0 d1 bd
       -0.13242114 -0.22840469 -0.04692147 -0.10247872
000050 b4 a0 59 3d 58 42 52 3d c6 cf 01 3d 0b ad aa 3b
       0.053131774 0.0513328 0.03169229 0.0052086166
000060 77 68 29 3e 2a e7 1d 3e 02 ed 90 bc 0e 47 6a bd
       0.16543756 0.15420213 -0.01769114 -0.05719667
000070 b8 dd 45 bb 76 58 ed bc fb a4 91 3d e1 2b 03 3b
       -0.003019197 -0.028972846 0.07111546 0.0020015168
000080 9f f1 08 bd 91 b7 d9 3c 6e 5b c8 3c 5c a9 7a 3d
       -0.033433553 0.02657679 0.02445766 0.06119667
000090 fe 64 6a bc de b5 e8 bc 09 ff d3 bd b6 e3 88 3c
       -0.014306305 -0.028407034 -0.103513785 0.016710144
0000a0 02 29 04 bd 88 7f 69 3c b5 f4 0b bc c9 bb 4b 3d
       -0.03226567 0.014251597 -0.008542229 0.049739633
0000b0 50 8f d8 3c bc 05 fe 3b db c7 be 3c 0a a1 17 bd
       0.026435524 0.0077521484 0.023288658 -0.037018813
0000c0 e1 73 68 3d b5 13 92 3d d8 e5 79 bd 3e 22 19 3e
       0.056751136 0.07132665 -0.06101021 0.14954469
0000d0 23 5d 05 3e 72 a3 5a bd 7d 18 c4 bd f0 12 0b be
       0.1302381 -0.05337853 -0.09574983 -0.13581443
0000e0 d6 9a 1c be 20 bc fe 39 f8 a8 e9 3c 34 4d 28 3d
       -0.1529344 0.0004858682 0.028522953 0.04108925
0000f0 fc 8e cc 3d f4 22 f8 3d 7f 99 03 3e 84 70 84 bc
       0.099882096 0.12116042 0.12851523 -0.016166933
000100 37 4b 8b bd 07 87 2e bd fb 48 ef 3d 40 fa 1d 3d
       -0.068014555 -0.04260924 0.11683842 0.038568735
000110 46 fd ad 3d e9 47 f5 3c bf 1f 16 3c 13 76 a5 3d
       0.08495574 0.029941516 0.009162842 0.080791615
000120 66 d4 d4 3a 2e 7b 8f 3d 9c b6 83 bc 2f ee 9d 3d
       0.0016237616 0.070059165 -0.016078286 0.077114455
000130 4a 39 c9 3d 68 d2 b2 3b 92 4a 40 3c 85 dd 8a 3d
       0.0982538 0.0054572113 0.011736529 0.06780533
000140 a1 0e 49 bd 35 91 59 3d ef ce cf bc a2 83 96 bc
       -0.049086217 0.053116996 -0.025367228 -0.018373314
000150 30 86 2a 3d 73 0a 2e 3d 9a b3 69 bb c5 d0 e4 3c
       0.041631877 0.042490434 -0.003566003 0.02793158
000160 a9 11 04 3d c1 9d e4 3c 6c 74 20 3e bc 9a 0e 3e
       0.032243405 0.027907254 0.15669411 0.13926214
000170 ac 62 a3 3d 99 46 f6 3d 06 78 a3 3d 8c 2e 0a bd
       0.079778045 0.12025184 0.07981877 -0.033735797
000180 78 57 4b 3d 96 29 f5 3d 5f 37 bf bd 02 8a 9c bc
       0.049643964 0.119708225 -0.09336733 -0.019108776
000190 5e d6 ba bc 4e 39 41 3d 41 8a 18 3d 4e af 36 3c
       -0.022807296 0.04717379 0.037241224 0.011150194
0001a0 61 a4 3b 3d 59 cc e9 3c 01 03 4f 3d 39 bc 4c 3d
       0.04581106 0.028539823 0.050539974 0.04998419
0001b0 61 10 8f 3d 16 74 c7 3d e9 67 6f 3d da d8 5a 3d
       0.06985546 0.097389385 0.058448706 0.053429462
0001c0 3a 76 20 3e d6 08 2a 3d b8 f9 27 3d af 21 0a 3e
       0.156701 0.041512333 0.041009635 0.13489412
0001d0 9c f8 35 3d 7e d2 11 be 7e 03 01 be 27 35 68 be
       0.044426546 -0.14240453 -0.12598988 -0.22676526
0001e0 35 d7 89 bd 28 b8 c2 3c ba 3e 07 3d a5 da bf 3c
       -0.067305006 0.023769453 0.033018805 0.023419688
0001f0 c4 bc df 3d a7 60 07 3e 29 6e 1d 3d 57 dc 80 3c
       0.10924676 0.13220464 0.038435135 0.015730066
000200 72 72 2c 3c 34 21 eb bb d6 88 3b 3d 8c 5d 56 bd
       0.010525333 -0.007175589 0.045784794 -0.052335307
000210 e6 5c 09 3b 3e 3b 24 bb ee 9e 93 bd ff c2 1e be
       0.0020959913 -0.0025059725 -0.07208048 -0.15504073
000220 0b 47 e2 bd 03 d3 9c bd 25 ae 4e bd 4c 76 19 bd
       -0.110487066 -0.07657435 -0.050459046 -0.037466332
000230 a1 50 10 bd e6 3e 84 3d e8 9e a3 3c b6 9d f1 3d
       -0.035233144 0.064573094 0.019973233 0.11797659
000240 6c ff 53 3e 13 f4 91 3e 8f 50 3f 3e ab 90 dc 3c
       0.20702904 0.28506526 0.18683074 0.026924452
000250 a0 00 af 3d 85 f6 8a bd 2c a2 50 be 66 68 84 be
       0.08545041 -0.06785301 -0.20374364 -0.258609
000260 97 a0 9b be 75 d0 1a 3d bd 6a 9c 3d b6 e9 b1 bb
       -0.30395958 0.037796456 0.07637546 -0.005429472
000270 a2 f6 16 3e 00 a5 93 3d b9 95 0b bc eb aa c6 3d
       0.1474252 0.072092056 -0.008519583 0.09700569
000280 42 a8 16 3d ce fc d8 bc 8a a7 f4 bc 41 64 bc 3b
       0.036781557 -0.026487734 -0.029865045 0.005749256
000290 5c 01 56 3d cf 7d 0c 3d c9 70 e2 3c 1d 6b 7a 3c
       0.05224739 0.034299668 0.02764167 0.015284327
0002a0 f2 e5 0a 3d 25 87 d2 3a c5 6d fe bc ab b3 04 3d
       0.0339107 0.0016062005 -0.031058202 0.032397907
0002b0 cb bf 09 bd 4c bc 7b bd a7 99 c1 3b 47 e1 f2 bc
       -0.033630174 -0.06145887 0.0059082094 -0.029648436
0002c0 e4 23 a4 bc 58 b2 3c 3d e8 6a 3a 3d fc 9b c7 bb
       -0.020036645 0.04606852 0.04551211 -0.006091593
0002d0 70 ca d3 bb 59 38 4a bc a6 13 41 3d 9a a5 ea 3c
       -0.0064633414 -0.012342536 0.04713788 0.028643418
0002e0 1d 85 39 3d e8 2b eb 3c e3 4e 5b 3d f6 86 be bc
       0.045292962 0.02870746 0.05354203 -0.023257714
0002f0 33 10 88 bd 69 28 01 be 7a 29 2e bd e4 7f 4a 3c
       -0.06643715 -0.12613072 -0.042520024 0.012359593
000300 84 83 d9 bc 89 12 b6 bd 89 3d 76 3d df 15 c5 3c
       -0.02655197 -0.08890254 0.06011728 0.02405828
000310 e9 a7 1f 3d a0 0b 89 3d da fc 8b 3d f7 f6 f5 3d
       0.03897849 0.066916704 0.06835337 0.120099954
000320 1c b1 db 3c c2 0b 9b bd 08 54 f2 bc 9a 5b 47 bd
       0.02681785 -0.07570602 -0.029581085 -0.048671342
000330 f9 df 56 be 7d 36 6f be 8c 17 0c be 43 3f d7 ba
       -0.20983876 -0.2336063 -0.13680857 -0.0016422052
000340 16 76 17 3d 24 fe c8 3b 87 df 12 3d 3c 65 5c bc
       0.03697785 0.0061338115 0.035857704 -0.0134518705
000350 4e 60 65 3d ab 2f 94 bc d1 e4 0a bd a0 cf 9f bd
       0.056000046 -0.018089136 -0.033909623 -0.07803273
000360 19 26 91 3c 4e 61 2b 3c 86 5e 87 bd fb 45 70 bc
       0.017718362 0.010460211 -0.06609826 -0.014665122
000370 f8 a7 c9 bd 2c b5 01 be 9d 87 cf bc ac 76 67 bd
       -0.098464906 -0.12666768 -0.02533322 -0.05650966
000380 8c b6 98 bd 4a f7 49 3e 58 d4 93 3e 9f 90 c1 3d
       -0.07456693 0.1972324 0.28872943 0.094514124
000390 0d 04 da 3d 59 4b 6a 3e 1d fd e0 3d ee 46 1b 3c
       0.10645304 0.22880305 0.109857775 0.00947736
0003a0 15 b8 d4 ba 9b e4 62 bd 56 be 36 be 0d 44 1e be
       -0.0016229177 -0.055393796 -0.17846045 -0.15455647
0003b0 18 1d 36 be 90 89 d5 bb eb ce 57 3d 0e c3 4e bd
       -0.17784536 -0.006516643 0.052687567 -0.050478987
0003c0 69 a8 e8 3d f4 44 40 3d d7 90 03 3e 82 2f fa bd
       0.11360247 0.04694076 0.12848221 -0.12216093
0003d0 e3 a2 7a be fb e9 e2 bd 11 fc 8d bd 6e 84 d3 bc
       -0.24476199 -0.110797845 -0.069328435 -0.025819983
0003e0 11 d4 70 3d 78 92 d6 3d 9c 95 1a 3e a3 df 35 3e
       0.058795992 0.104771554 0.15096134 0.17761092
0003f0 cf a0 fb bd cb bf dd bd 59 06 1e be a1 2c 1f bc
       -0.12286531 -0.10827597 -0.15432109 -0.00971523

layer3.0.bias f4 [64]
000000 41 8e 01 bd 86 68 1f be 03 55 a4 3c e3 6c 0c 3d
       -0.031629805 -0.15567216 0.020060068 0.03428353
000010 33 f2 cf bd 23 4a 44 bd 1c 02 33 bc 20 1a 14 3e
       -0.10153618 -0.047922265 -0.010925796 0.14463091
000020 cb a4 97 bd 31 70 12 bd 7c 46 b4 3d a0 f6 e2 38
       -0.07404479 -0.035751525 0.08802506 0.00010822457
000030 1d 6d 65 bc ed 6e 7f 3d c5 58 a0 bd 45 04 af bd
       -0.014003065 0.062361646 -0.078294314 -0.08545736
000040 a5 cd 66 bd 4a 9b e4 bb 20 c2 45 be 25 98 d4 bd
       -0.05634846 -0.0069765197 -0.19312334 -0.10380582
000050 2f 09 f3 bc 05 f6 fc 3d 8d c9 6d 3c 16 a6 c3 bd
       -0.029667465 0.12351612 0.0145133855 -0.09553163
000060 91 fc 5f bd 47 14 ad bb 22 1d de bb 12 31 be 3d
       -0.054684225 -0.0052819583 -0.0067783752 0.09286703
000070 e9 2e 8f bd 15 38 c1 bd a1 a8 04 3d 0d 03 09 be
       -0.06991369 -0.09434525 0.03238738 -0.1338007
000080 36 68 2b 3d 89 23 e6 bd 68 28 16 be 89 40 46 bd
       0.04184743 -0.112372465 -0.14663851 -0.04840139
000090 9d 42 52 3d 15 bc 33 be 1b 88 f3 3b 1f 55 dc bc
       0.05133306 -0.17552216 0.0074319965 -0.026896058
0000a0 84 5e 31 3d 28 1b d6 3d a0 da 49 be 6f 55 76 bd
       0.043303028 0.104543984 -0.19712305 -0.06014007
0000b0 f6 c4 df bd 7e 87 69 bd 6c 36 a8 bd 69 26 00 3d
       -0.10926239 -0.05701398 -0.08213505 0.03128663
0000c0 74 67 bc bc b8 5b e4 ba 39 92 2b be 66 9e c3 bd
       -0.022998549 -0.0017422354 -0.16754998 -0.095516965
0000d0 3b ef 85 bd db b0 c6 3c b9 65 a6 bd e0 67 10 be
       -0.0653977 0.024254253 -0.08124871 -0.14102125
0000e0 41 d5 cd 3d 2a 58 e5 3c b5 f2 dc bd ee f2 0a be
       0.100504406 0.027996141 -0.1078848 -0.13569233
0000f0 6e ea f5 bd d3 38 a9 3b 8e bf 1a 3e d1 cf 2c bd
       -0.120076045 0.0051642447 0.15112135 -0.042190377

layer3.1.weight f4 [64]
000000 62 ef 8d 3f c3 50 42 3f aa 46 92 3f b0 0d 8d 3f
       1.1088679 0.7590448 1.1427815 1.1019802
000010 95 99 87 3f 24 f9 84 3f 59 3d 76 3f b2 13 86 3f
       1.0593745 1.0388532 0.9618736 1.047476
000020 3e bb 60 3f b8 70 77 3f 66 30 80 3f 67 a7 8c 3f
       0.8778571 0.9665637 1.001477 1.0988587
000030 a1 7d 77 3f 6a e1 95 3f 1f a4 65 3f 18 c1 85 3f
       0.9667607 1.1709416 0.89703554 1.0449553
000040 c3 d6 90 3f fe 2b 8b 3f 42 1b 71 3f ee 69 81 3f
       1.131554 1.08728 0.9418222 1.0110452
000050 bf 61 5e 3f 05 71 8a 3f f1 53 93 3f f0 9b 55 3f
       0.868679 1.0815741 1.1509992 0.83441067
000060 bf cd 67 3f 9a 7f 4f 3f 22 81 86 3f 51 c4 8c 3f
       0.9054832 0.8105408 1.0508158 1.0997411
000070 36 6d 68 3f 9e 98 81 3f 0a aa 8d 3f cd ef 75 3f
       0.9079164 1.01247 1.1067517 0.9606903
000080 51 d1 84 3f 20 8d 6d 3f e1 61 89 3f a6 4a 7f 3f
       1.0376378 0.92793465 1.0732995 0.9972328
000090 b8 d6 85 3f 50 56 59 3f b9 39 55 3f 0f 3d 87 3f
       1.0456152 0.8489733 0.832912 1.0565509
0000a0 83 b5 8c 3f bb f3 83 3f 40 43 4e 3f 4b 9a 82 3f
       1.0992893 1.0308756 0.80571365 1.0203336
0000b0 48 54 95 3f 25 3f 87 3f 89 5f 82 3f e0 b0 8d 3f
       1.1666346 1.0566145 1.0185405 1.1069603
0000c0 67 2f 84 3f 6f 6c 66 3f 5f 2c 5e 3f 3d 39 56 3f
       1.0326966 0.90009207 0.86786455 0.8368109
0000d0 31 a5 55 3f 17 8e 82 3f 9b 57 79 3f 17 58 50 3f
       0.8345519 1.0199612 0.973993 0.81384414
0000e0 b4 e8 88 3f 1f 62 88 3f 36 fd 47 3f 34 e2 82 3f
       1.0696015 1.0654944 0.78120744 1.0225282
0000f0 83 c9 57 3f 71 ce 5d 3f e7 52 82 3f 02 2f 81 3f
       0.8429186 0.8664313 1.018155 1.0092471

layer3.1.bias f4 [64]
000000 89 91 c3 bd da b9 69 be c9 e0 14 bd 84 4d 21 bd
       -0.09549243 -0.22824803 -0.036347184 -0.039380565
000010 d4 63 f2 bd 82 98 9b bd c3 76 af bd ea 79 03 3d
       -0.11835447 -0.07597448 -0.08567574 0.03209869
000020 b4 43 10 be a8 fe 5c bc 30 70 76 bc 39 73 81 bc
       -0.14088327 -0.013488449 -0.015041396 -0.015802013
000030 1c 28 b1 bd 22 ce 97 bd 49 5f 08 be e5 7a c1 bd
       -0.086502284 -0.074123636 -0.13317598 -0.094472684
000040 e6 01 2a bd 85 15 f9 bc e1 bb 1c be 8e 8c b9 bd
       -0.041505717 -0.03040577 -0.15306045 -0.09060012
000050 01 8d 8c 3b 1f 9b 37 bb fa b3 23 bd f0 00 1c be
       0.00428927 -0.0028016043 -0.03996656 -0.15234733
000060 e5 aa 91 bd bc 98 85 bd 44 31 c1 bc b3 21 1b bc
       -0.07112674 -0.065232724 -0.023583062 -0.009468484
000070 20 0c bf bd b3 91 73 bd 52 22 74 bb 18 fd 12 be
       -0.093284845 -0.05946512 -0.0037251902 -0.1435436
000080 bb 44 8d 3c bb 1d f1 bd 76 b0 db bd 09 02 c0 bd
       0.017244687 -0.11773249 -0.10727017 -0.09375388
000090 1e a5 7e bd 93 2c 62 be e5 00 d0 3c 41 cd a4 bd
       -0.062169187 -0.22087316 0.025391052 -0.080469616
0000a0 cf 31 5c bd 3e 15 54 bb 9e 12 76 be 27 f6 e2 bd
       -0.05375844 -0.0032361294 -0.2403054 -0.11082106
0000b0 c5 af 01 be 2b e4 67 bd 91 3c c0 bd de 22 91 bb
       -0.12664707 -0.056614082 -0.09386552 -0.0044292053
0000c0 50 86 ef bd 09 0c 9a bd 92 4a 69 be f2 44 39 be
       -0.1169554 -0.07521827 -0.22782353 -0.18092707
0000d0 68 bb 26 be 12 0d 30 bd 6b c2 9b bd b7 8a 42 be
       -0.16282427 -0.042981215 -0.07605442 -0.18998228
0000e0 35 7a ff 3c 38 64 25 3c e9 16 54 be fb f9 09 be
       0.031186203 0.010094695 -0.20711865 -0.13474266
0000f0 67 09 09 be 8b 2c 47 be e7 34 a8 3c 42 11 8e bd
       -0.13382493 -0.19450586 0.020533038 -0.069368854

layer3.1.running_mean f4 [64]
000000 b1 ca ca 3f 73 59 d6 c0 93 2d 8e c0 a3 b0 51 c0
       1.5843107 -6.698419 -4.4430633 -3.276406
000010 44 3f 71 c0 69 03 7f 40 40 32 a0 c0 de 8e 88 bf
       -3.7694864 3.9845831 -5.006134 -1.06686
000020 dd 98 3b c0 d9 b4 13 c0 0e f7 f6 bf 48 80 47 c0
       -2.931205 -2.307913 -1.9294145 -3.1172047
000030 59 9f 72 bf 23 33 b3 c0 f6 fc a8 be 6d be 94 3f
       -0.94774395 -5.5999923 -0.33005494 1.1620613
000040 47 36 b0 bf a4 21 65 c0 53 1e 5c c0 3d 5c d0 3f
       -1.3766564 -3.5801783 -3.4393508 1.6278149
000050 15 94 60 c0 98 cc 12 c0 1a 7d 10 bf ee 6a bc c0
       -3.5090382 -2.2937374 -0.5644089 -5.888053
000060 3d da 74 c0 3d eb 4f c0 22 63 5b c0 bb b2 0c c0
       -3.8258202 -3.2487328 -3.4279256 -2.1984088
000070 ad b9 a3 bf 99 6e 38 c0 ac 08 10 c0 bb 78 35 c0
       -1.2791039 -2.8817503 -2.2505293 -2.8354938
000080 1f 86 53 c0 d4 3c 57 c0 fc 17 11 c0 a6 90 7f be
       -3.305061 -3.3630877 -2.267089 -0.24957523
000090 d0 46 60 c0 24 80 51 c0 8a 3e cb bf 66 e4 bc bf
       -3.504322 -3.273446 -1.587846 -1.4757202
0000a0 a4 a3 8b c0 c2 b9 7f c0 cd db b3 c0 56 85 9a bf
       -4.3637257 -3.9957128 -5.620581 -1.2071941
0000b0 de e5 15 c0 4a cc 6f c0 a1 08 24 3f dc 79 3f 3d
       -2.342155 -3.7468438 0.64075667 0.046747074
0000c0 33 9f b1 3f 79 22 8b c0 b6 ac 91 c0 ce 44 19 c0
       1.3876709 -4.347958 -4.552333 -2.3948245
0000d0 47 bc 28 c0 22 bd f7 bf 68 f5 3e c0 8e c0 8e c0
       -2.6364915 -1.9354594 -2.9837284 -4.461005
0000e0 ee b8 ec bf 12 07 6f c0 16 3f b5 c0 73 e0 ee be
       -1.8493936 -3.7348065 -5.663951 -0.46655616
0000f0 ac 86 bd c0 80 dc c4 bf 6d a1 b8 bf 76 ff 5e 40
       -5.9226894 -1.5379791 -1.4424263 3.484342

layer3.1.running_var f4 [64]
000000 a6 23 9c 40 50 97 f8 40 f5 f2 94 41 1b 7f 62 41
       4.8793516 7.768471 18.618631 14.156032
000010 54 00 bd 40 ce 9a 06 41 df b4 6c 41 af 78 89 41
       5.90629 8.412794 14.794158 17.183928
000020 b0 fc a1 40 00 23 78 41 c0 5c 34 41 9b 1c 65 41
       5.0620956 15.508545 11.272644 14.319484
000030 45 57 cc 40 aa dd aa 41 ef 02 1c 41 0f c1 88 40
       6.385653 21.358234 9.750716 4.2735667
000040 00 43 7b 40 c2 0b 80 41 86 f0 0c 40 b5 66 93 40
       3.9259644 16.005741 2.2021804 4.6062875
000050 55 24 a4 41 f8 35 5b 41 4c aa a7 40 8d b6 0e 41
       20.51774 13.700676 5.239538 8.919568
000060 ac 16 7a 41 ea 2a a8 40 43 87 76 41 45 a1 56 41
       15.630535 5.2552385 15.408023 13.414372
000070 bc 87 f3 40 a5 f8 39 41 23 64 6d 41 d3 8e 6b 40
       7.610319 11.623204 14.836947 3.6805923
000080 7b 51 5c 41 a0 e9 2d 41 ac c5 98 40 99 ea 26 41
       13.769893 10.869537 4.77413 10.432275
000090 29 10 76 41 9b f5 b1 40 56 74 13 41 2e 24 f4 40
       15.378945 5.561231 9.215902 7.6294165
0000a0 da 4c 8b 41 1b d4 80 41 e4 39 85 40 bb 2a 7f 41
       17.412525 16.103567 4.1633167 15.947932
0000b0 fd 6a b9 40 1b 98 51 41 49 a1 65 40 2b 0a a6 40
       5.79431 13.099635 3.587969 5.188741
0000c0 13 47 3e 41 60 13 b1 41 24 af da 40 5d f2 c7 40
       11.892352 22.13446 6.8338795 6.2483354
0000d0 45 4f 0c 41 2a 51 3f 41 d4 fd 19 41 f6 cd b4 40
       8.769353 11.957315 9.62447 5.6501417
0000e0 47 cf 68 41 34 71 6f 41 77 f7 00 41 b0 4d 1a 41
       14.550605 14.9651375 8.060416 9.643967
0000f0 b5 7d 54 41 35 29 a0 40 be d7 63 41 a2 7a e0 40
       13.28069 5.00503 14.240171 7.01497

fc1.weight f4 [10, 576]
000000 d3 ab ce bd 0a 85 f5 bd b9 81 06 bd 41 4c bc 3d
       -0.100913666 -0.11988266 -0.032838557 0.09194232
000010 2c 03 ae 3d cb b8 08 3e bc 38 de 3d 17 a1 e5 3d
       0.08496699 0.13351743 0.10850665 0.11212366
000020 f5 c2 fe bb 76 25 14 3c f9 a6 9b 3d 90 fd d0 bc
       -0.0077747055 0.0090421345 0.07600207 -0.025511533
000030 9c e9 26 3c a2 22 a8 3d f7 cf 0b 3d df b0 c1 bc
       0.010187533 0.08209731 0.034133878 -0.023643909
000040 fd 51 f4 bd 71 fa a0 bd 76 31 13 be 39 03 b6 bd
       -0.119297005 -0.07860268 -0.14374337 -0.088873334
000050 95 5a 7a bd f8 81 7e bd 62 51 b2 bd 5a 93 05 be
       -0.061121542 -0.062135667 -0.08706929 -0.13044491
000060 a5 af 87 bd 16 46 44 bd b0 d7 f5 bd 03 07 6e bd
       -0.066252984 -0.0479184 -0.1200403 -0.058112156
000070 45 fe 29 3d 5d 2b 60 3c 71 14 a7 bd 32 02 07 3d
       0.041502256 0.013682214 -0.08158196 0.032961078
000080 97 1b fd 3a 73 ad 05 be a8 e3 91 bd fa ea 24 be
       0.001931059 -0.13054447 -0.071235 -0.16105261
000090 f2 8f 21 3d 83 1d 0f 3d 43 bb 90 bb 24 89 a0 3c
       0.039443918 0.034940254 -0.0044168546 0.019596644
0000a0 c2 8c e3 bd fb cf eb bb cd 2e 18 3d 94 f2 13 3e
       -0.11110832 -0.007196424 0.037154008 0.14448005
0000b0 d0 63 d4 3d 44 1b df bd e6 7a d4 bd ab 3e ab bd
       0.103706 -0.108938724 -0.103750035 -0.08361562
0000c0 88 53 03 3d c1 2f a0 3d 20 fa b2 3d 38 b3 90 3c
       0.032062083 0.07821608 0.08739114 0.017663583
0000d0 f6 a5 aa bc 19 51 bd bd 20 ec 0b 3d d1 83 49 bc
       -0.02083109 -0.09243984 0.034160733 -0.012299494
0000e0 e7 1e 80 3d d0 75 9e 3c be 92 e4 bd cb 40 55 bd
       0.06255894 0.019343287 -0.11160801 -0.052063745
0000f0 6c e2 f4 3c 7b 75 2b 3d 6e fc 30 3c f6 8e e0 bd
       0.029893123 0.041860085 0.010802371 -0.10964768
000100 56 3b 69 3b 1b cc 2a bd 12 b6 7a bd 7b c3 d7 bc
       0.0035588345 -0.041698556 -0.061208792 -0.02633833
000110 99 ae e6 bb 27 1b c7 bc 48 6d 06 3e e3 bc 9d 3d
       -0.0070398566 -0.02430494 0.13127625 0.07702043
000120 bd b7 22 3d da db 8d 3d 18 5d 4c bb 8a a8 0c 3b
       0.039726008 0.06926699 -0.0031183418 0.0021462762
000130 ff fd 22 bd 22 ef 7e bb ff 9a c0 3d f4 58 57 3d
       -0.03979301 -0.0038899858 0.09404563 0.052575067
000140 56 ec 3f 3d 82 ba e4 bb ad 36 3b bd 55 d8 7c bd
       0.046856247 -0.0069802413 -0.04570644 -0.061729748
000150 51 45 41 bc 75 1b 47 3d 3b 0f cf 3c 8b b3 8f 3d
       -0.0117963115 0.04861017 0.025275817 0.07016667
000160 3a d2 6d 3d 09 1c f4 3c d0 a8 2b bd 37 d6 d6 3c
       0.058061816 0.029798524 -0.04190904 0.026225192
000170 23 ea 48 bd 1a 3a 22 3c 89 e2 16 3c 85 d5 25 bd
       -0.049051415 0.009901548 0.009209284 -0.04048683
000180 cf fd c6 3c 67 31 e7 3d b2 3e 03 bd c8 70 5f ba
       0.024290947 0.112887196 -0.032042213 -0.00085235806
000190 c2 b5 16 3e 62 a0 bb 3b 63 70 b6 3b 1e 45 87 3d
       0.14717773 0.005725906 0.0055675968 0.0660498
0001a0 05 58 e8 bc c2 7e ff bd 91 4e c6 bd 18 d5 42 be
       -0.028362283 -0.12475349 -0.09682954 -0.19026601
0001b0 be 6e b5 3d 27 ef 78 3d b0 d3 1f 39 bf b4 1a 3d
       0.08859013 0.06077495 0.00015242281 0.03777003
0001c0 58 1f 8c 3c fa 91 0b 3d a7 ff 47 3d 25 b8 63 3d
       0.01710479 0.03407476 0.048827793 0.055595536
0001d0 bd 47 b7 bd 90 f3 3c be 0c 61 bc bd 54 5c f1 bd
       -0.0894923 -0.18452287 -0.09198198 -0.11785188
0001e0 4b d3 18 be d8 e4 b4 bd 03 11 cd bd 36 c4 86 bd
       -0.14924352 -0.08832711 -0.1001301 -0.06580393
0001f0 dd 62 05 be 3c 54 f3 bd 56 00 94 bd 59 d3 bc bd
       -0.13025995 -0.11881301 -0.072266266 -0.09219999
000200 71 d0 cc bd de ed d5 3c 4f b7 e4 3d e7 c7 4b 3c
       -0.100006945 0.0261144 0.11167776 0.012437797
000210 87 ce c3 bd 7e 68 8e bd 9c 2f 76 bd c8 83 84 bd
       -0.09560876 -0.06953524 -0.060103998 -0.06470448
000220 b0 9a 37 bd 91 71 08 bd b9 ae 0e 3e 00 32 8d 3d
       -0.044825256 -0.03331143 0.13933839 0.06894302
000230 aa 29 f4 3c c2 cf f8 3c ce 09 cf 3c 34 7b 76 bd
       0.029805023 0.030372504 0.02527323 -0.06017609
000240 37 51 bf bb d5 af 9e 3d 96 b5 e1 3c b3 44 1e 3b
       -0.005838539 0.07748381 0.027552407 0.0024149835
000250 c3 c8 30 3d 6f c5 eb 3d c0 90 7f bd 11 df 7a bd
       0.04316021 0.11512267 -0.062393904 -0.06124789
000260 9b 95 14 bd fa 80 1f be c6 68 82 bd a9 1b 80 bd
       -0.036275487 -0.15576544 -0.0636764 -0.06255276
000270 7c c7 55 bd 37 72 82 bc 69 21 c6 3c 98 2a 60 bd
       -0.052192196 -0.015923603 0.024185853 -0.05472812
000280 30 9f 88 bc 1c 0e af bd 1d 61 b2 bd 51 8b fa 3b
       -0.016677469 -0.08547613 -0.08709929 0.0076460023
000290 ea a1 3e bd 72 43 48 bc 8b 58 05 bd a0 d8 fd bc
       -0.046541132 -0.012223111 -0.032555144 -0.030987084
0002a0 22 70 28 bc ac 81 f2 bc 9c 78 4d bd 21 a0 9c bd
       -0.010280641 -0.029602848 -0.05016385 -0.0764773
0002b0 2a 7b f8 bd 3e 12 55 bd 9c f2 a3 3d 19 83 1b 3d
       -0.12132867 -0.05201935 0.080052584 0.03796682
0002c0 6a cf 3e 3d e0 3a e9 3b 2b 56 3f 3c cb 7d a4 bd
       0.046584524 0.007117614 0.011678259 -0.080318056
0002d0 5a b1 c8 3c 62 5c 67 3c 90 b4 f5 bb 77 83 dc bc
       0.02449863 0.014121147 -0.0074983314 -0.026918156
0002e0 0d 46 d5 bd 48 fb 79 bd dd b6 07 3d f9 e0 8c 3d
       -0.10413752 -0.061030656 0.033133376 0.06878848
0002f0 43 be 35 3b d8 e1 c6 bd a8 94 e7 bc 55 f9 59 bd
       0.0027731813 -0.09711045 -0.028269127 -0.053216297
000300 10 e3 24 bd 5a 59 82 bc f3 84 27 3c a1 24 80 bb
       -0.040255606 -0.015911747 0.010224569 -0.0039106165
000310 ab d0 2c bc 68 c8 90 bb 9e 86 60 bd 82 f2 cc 3c
       -0.010547797 -0.0044184215 -0.05481588 0.02501798
000320 42 b8 12 3d 16 db 98 bc 6a 29 fe bc 69 fc 98 3d
       0.035820253 -0.018659156 -0.031025607 0.074700184
000330 41 cb a7 bd 8c 26 1c 3d c2 fd 96 3d c8 93 ed 3c
       -0.081930645 0.0381227 0.07372619 0.029001132
000340 b1 07 1a 3d 2d 62 a0 3d fc a9 ae 3b 36 8f f9 3c
       0.03760499 0.078312255 0.0053303223 0.030463796
000350 67 2c 4d 3d cb 5a 7d bd 82 2d c4 bd 9d b1 90 bd
       0.050091173 -0.061854165 -0.095789924 -0.07065127
000360 4c 13 c9 3c e5 d6 be 3d 02 60 d5 3d 9f 44 18 3b
       0.024545334 0.09318332 0.10418703 0.002323426
000370 60 47 7c bd d5 84 8a 3c c8 1c 7a bb 2e 7d 08 bb
       -0.061591506 0.016909042 -0.0038164128 -0.0020826566
000380 e5 a4 05 bd 24 42 67 bb 8d 6e 3b 3c be 3c bf bb
       -0.03262796 -0.0035287226 0.011439932 -0.0058360985
000390 39 88 e2 3c 7e 6f a3 3c 1e d0 ee 3c 56 1a 49 3b
       0.027652847 0.019950625 0.029151972 0.0030685863
0003a0 b9 d0 d0 bc e4 5e 24 bc 8b 02 ce bd 8e da ca bc
       -0.025490152 -0.010032389 -0.10059079 -0.024762418
0003b0 bf cd 22 bd ab 06 41 bc 7a 9f 77 bb af 85 3f bd
       -0.039746996 -0.011781375 -0.0037784264 -0.04675835
0003c0 40 17 a5 bd 9e 84 9b bc 45 86 9b bd 70 11 21 be
       -0.08061075 -0.018984135 -0.07593969 -0.15729308
0003d0 61 68 af bd c2 7e 09 be 98 89 d8 bd 7d 33 bc bd
       -0.085648306 -0.1342726 -0.10573119 -0.09189508
0003e0 82 b3 79 bd 96 d9 f5 bc 70 a6 40 bc 30 1d f6 bc
       -0.060962208 -0.03001098 -0.011758432 -0.030043215
0003f0 53 04 c2 3d 78 18 99 3d 6e 4e bb 3d 78 b6 bc bd
       0.09473481 0.0747537 0.09145819 -0.09214491

fc1.bias f4 [10]
000000 f1 fb 86 bd e3 59 fa bc 49 2e 55 3e c8 d6 36 3d
       -0.06591023 -0.03056044 0.20818438 0.044638425
000010 3a 0b 2c 3e f9 f8 16 3d e0 39 19 bd 11 35 cf bc
       0.16801158 0.036858533 -0.03740871 -0.025293859
000020 6b 36 85 3b d1 cb 08 3e
       0.004065325 0.13359

fc2.weight f4 [1, 10]
000000 f5 d1 7f 3e c3 1e 38 3e e0 0f d6 be 88 34 97 3e
       0.24982436 0.17980485 -0.41808987 0.29532266
000010 9c 95 24 be c7 05 82 be 40 02 91 3d 07 99 67 3d
       -0.16072696 -0.25395033 0.07080507 0.056542423
000020 b5 b3 a1 3e 22 21 83 be
       0.31582418 -0.25611216
